ch12/iris_classifer_state.pt (torch, 2680 bytes, 4 tensors)

layer1.weight f4 [16, 4]
-1.1232382 -4.250282 5.5703125 5.991818 2.436818 4.490471 -6.188174 -5.3107963
-0.9996279 2.4550188 6.4352965 5.861736 -0.063133314 4.446465 6.0857067 5.750422
4.608311 -6.1922407 5.9744616 5.328267 -4.957325 5.2345095 -4.41238 4.9787498
5.305561 -5.96834 5.9253974 5.275834 1.5697005 6.4691033 -5.720617 -5.1074853
-1.8454076 5.2427063 -6.0055695 -5.8456225 2.730505 5.5292497 -5.6759796 -5.612091
-2.607131 -5.612877 6.1290383 5.4708557 2.2621312 4.8335614 -6.239782 -5.389054
2.793513 4.8625064 -6.2314305 -5.840602 -2.9939127 -3.2988262 6.3580446 6.0816875
5.279247 -6.3406477 6.0771327 5.12423 -2.789688 -4.961253 6.0130334 6.2468467
00000000: 45c6 8fbf 4f02 88c0 0040 b240 f9bc bf40
00000010: d3f4 1b40 f0b1 8f40 8505 c6c0 0bf2 a9c0
00000020: 9de7 7fbf 071f 1d40 f3ed cd40 5793 bb40
00000030: 0a4c 81bd 7149 8e40 1cbe c240 7503 b840
00000040: 4977 9340 d626 c6c0 ca2e bf40 2a81 aa40
00000050: 68a2 9ec0 1a81 a740 3832 8dc0 eb51 9f40
00000060: 28c7 a940 a4fc bec0 db9c bd40 a2d3 a840
00000070: f2eb c83f e502 cf40 4b0f b7c0 8570 a3c0
00000080: 5136 ecbf 40c4 a740 a02d c0c0 570f bbc0
00000090: 98c0 2e40 9def b040 a0a1 b5c0 4096 b3c0
000000a0: 3cdb 26c0 b09c b3c0 1521 c440 4011 af40
000000b0: c2c6 1040 89ac 9a40 4bac c7c0 2173 acc0
000000c0: ebc8 3240 a799 9b40 e167 c7c0 36e6 bac0
000000d0: 449c 3fc0 f81f 53c0 1a75 cb40 2f9d c240
000000e0: 97ef a840 96e6 cac0 df77 c240 b1f9 a340
000000f0: 408a 32c0 96c2 9ec0 c56a c040 2be6 c740

layer1.bias f4 [16]
0.22232825 -2.0299668 3.828387 3.6237123 3.62874 -6.255205 5.3119645 -1.4671929
-4.0968647 -2.7529182 1.1496495 -1.5547101 -2.2607622 3.088945 4.277256 2.5536234
00000000: 04aa 633e faea 01c0 4b04 7540 e7ea 6740
00000010: 473d 6840 a42a c8c0 9dfb a940 facc bbbf
00000020: 8419 83c0 d02f 30c0 b727 933f be00 c7bf
00000030: 54b0 10c0 46b1 4540 48df 8840 916e 2340

layer2.weight f4 [3, 16]
-5.7758055 5.298226 -5.4804997 -5.2862835 -5.414679 2.8955274 -5.9513617 5.8414774
5.43378 5.4998803 -5.4422255 5.228514 5.4713597 -5.4064603 -5.9468374 -5.7517357
-3.764652 4.3796515 -5.4798517 -5.2192903 -1.9065313 4.1737347 4.3145986 -0.30241308
3.6653523 4.380104 -3.5555315 4.4010797 4.2569766 -4.779522 4.953915 -3.5971155
6.014612 -5.927284 6.040379 6.171049 5.8387003 -4.5623646 5.447343 -5.579146
-5.645042 -5.5059357 5.9852543 -5.8376293 -5.4246655 5.653186 5.3302646 5.7672486
00000000: 66d3 b8c0 118b a940 4160 afc0 3c29 a9c0
00000010: 0d45 adc0 5250 3940 8e71 bec0 62ed ba40
00000020: 87e1 ad40 05ff af40 b626 aec0 fd4f a740
00000030: 6115 af40 b901 adc0 7e4c bec0 380e b8c0
00000040: 0ff0 70c0 1b26 8c40 f25a afc0 6d04 a7c0
00000050: 3809 f4bf 3c8f 8540 3111 8a40 e3d5 9abe
00000060: 2295 6a40 d029 8c40 d48d 63c0 a5d5 8c40
00000070: 2739 8840 d8f1 98c0 7986 9e40 2437 66c0
00000080: b477 c040 4fac bdc0 c94a c140 3c79 c540
00000090: a2d6 ba40 e4fe 91c0 a250 ae40 5d88 b2c0
000000a0: 2fa4 b4c0 a030 b0c0 3487 bf40 dccd bac0
000000b0: dc96 adc0 e6e6 b440 8791 aa40 4d8d b840

layer2.bias f4 [3]
4.8512945 4.314402 -5.33965
00000000: ce3d 9b40 950f 8a40 6ade aac0
